embedder/embedder.tflite (tflite, 70492 bytes, 5 tensors)

dense/bias f4 [32]
00000000: 5a29 913f a315 973f 0b04 dd3e b200 1cbe
00000010: 5ed7 8c3d ce8a 073f 78d1 a2be e32c c4bf
00000020: 404c a03f 5767 653e 1e3e fcbf ab1a d9bf
00000030: 35db c93f a229 d2bf d23c da3f 6b97 783f
00000040: 1655 36bb 84b0 b3bb 6502 a6bf 7611 5e3e
00000050: 5d86 d43f cc9f d43f 3f54 f8bf e3be 8bbf
00000060: 2954 df3f 19fd 6e3f 1546 6fbe a97a dfbd
00000070: e624 453f 233c bdbf 7fa6 9fbc d3f9 b8be
1.1340744 1.1803478 0.43167147 -0.1523464 0.068770155 0.52946174 -0.31800437 -1.5326198
1.252327 0.22402702 -1.9706457 -1.6961263 1.5770022 -1.6418955 1.7049811 0.97106045
-0.0027821711 -0.005483689 -1.2969481 0.21686348 1.6603504 1.6611266 -1.940071 -1.0917629
1.7447559 0.93354946 -0.23366578 -0.109120674 0.7700943 -1.4783977 -0.019488571 -0.361281

conv1d/bias f4 [16]
00000000: eb0a b3ba fa8a 84bd 1dfc 16bb 2739 00bd
00000010: da57 ecbc e9eb 5fba 896d 00bd 092c 2f3a
00000020: c67e 3b39 ae96 163a ac7d 33bc 414c 61ba
00000030: d3a0 9739 60c7 87bd da88 923e 2f6a 0ebd
-0.001365987 -0.0647182 -0.0023038455 -0.031304505 -0.028850485 -0.0008541928 -0.03135446 0.0006682282
0.00017880937 0.0005744499 -0.0109552555 -0.00085944316 0.00028920788 -0.06629825 0.28620034 -0.034769233

std.constant6 f4 [32, 512]
00000000: d017 8e3e 456f 5f3e 07a7 8d3e 5278 5b3e
00000010: 36f1 513e acac 9c3e 55f0 703e 0f1e 6c3e
00000020: 49f8 6f3e 9fa9 4e3e faee 533e fc8a 873e
00000030: 3efe 793e 47ce 4e3e c027 233f a47a 483e
00000040: 0d5d 983e 6775 1c3e b39c 8a3e aab1 523e
00000050: 88ba 5b3e e3f8 8a3e 7bcc 7a3e fdd8 803e
00000060: 0f6c 8c3e 0baa 853e a61d 633e 8865 933e
00000070: 1c5b 873e 67a7 0f3e 527f 273f 0a7e 4d3e
00000080: 7e7c 693e 0536 773d 49b9 6e3e a753 1f3e
00000090: 0640 403e 4a9c 703e 55f9 493e 437a 863e
000000a0: fd3a 7c3e 3928 7e3e 2b8b 5d3e 3c7c 823e
000000b0: 4b15 813e cb03 9a3d d291 323f 4e13 293e
000000c0: eff2 4a3e 7016 603c 15db 193e e4e0 d03d
000000d0: 8362 e63d e2ec 413e 5110 2c3e 532b 443e
000000e0: 563c 503e 263b 363e 2dc1 203e 27f9 3a3e
000000f0: 1aa5 413e 9cd8 85bb 308f 2e3f 0263 b73d
00000100: 3c19 723e cc3b 283e 58ee 913e 013c 3a3e
00000110: 3456 443e 2371 783e 7e51 6a3e b648 6f3e
00000120: 9fa3 7a3e 040a 5d3e 933d 393e 1fe0 8a3e
00000130: fb06 703e f781 3b3e 9013 1b3f a234 3a3e
00000140: 9d15 893e b446 093e 6f89 7f3e 45b7 3e3e
00000150: 8573 3f3e 0205 983e df33 713e 96aa 643e
00000160: 75e4 883e 9aad 843e efab 703e 3863 923e
00000170: c2f0 853e a0ac 053e baf3 1e3f f807 633e
00000180: 4ffe 5b3e 42c3 853d fba3 823e 61b6 243e
00000190: 3ea7 2d3e 3640 683e b7e1 123e 9c2b 6d3e
000001a0: 3485 693e 09dd 5a3e aaa2 393e 9836 593e
000001b0: 744f 833e 1ba1 6d3d 6a07 273f e214 fd3d
000001c0: 14d5 683e 6d34 eebb 3187 773e 4acf ca3d
000001d0: 36af da3d 6d71 643e 55cf f23d 1ee0 633e
000001e0: fe84 533e 9dc4 4c3e a2de 123e 2f2d 563e
000001f0: 6110 833e 6302 343c 8107 283f 33ec b13d
00000200: ab50 9f3e 5d76 3f3e 440d 853e ea42 4e3e
00000210: a35a 483e a79e 993e 4bd9 7f3e 99b4 6e3e
00000220: f6b4 843e 301b 753e 9ee9 6d3e f995 983e
00000230: 1760 873e 8f18 453e 45cb 243f 8e6e 433e
00000240: dc2a 843e 8c16 033e 12b1 823e 3e0b 393e
00000250: 189d 513e 3326 833e d3d1 4f3e 5bdc 803e
00000260: baa2 873e 316d 743e 651a 673e 2f92 963e
00000270: 0a75 873e e700 0d3e 9671 273f df90 343e
00000280: 6ad3 5f3e e0bd 1f3d a0f7 703e 059c 1f3e
00000290: e739 443e b701 5c3e 728a 2b3e b173 783e
000002a0: 2a90 653e 0764 6a3e 4ce9 5f3e bb22 643e
000002b0: fb5c 5f3e 670d a23d 225d 2c3f a490 103e
000002c0: 12c1 573e 56c7 e3ba 5834 563e 9379 be3d
000002d0: c540 c83d 71f3 4f3e ab13 ff3d e109 4c3e
000002e0: 27cd 3d3e bacb 5e3e dcdd 1f3e 01a6 4a3e
000002f0: b29b 573e e55b 7f3c 0c82 303f 5193 863d
00000300: d891 8b3e ebe7 4a3e 0d5d 903e d2cb 2e3e
00000310: 83b6 5f3e a37c 8d3e bc77 643e 813d 713e
00000320: bc06 773e ce7f 5d3e 5b73 453e 5f9f 803e
00000330: 7a2a 7d3e f349 493e 4b3f 233f 708c 313e
00000340: e1c3 8b3e 2e35 003e cede 913e a8ff 3e3e
00000350: a7f9 473e c15c 883e dec4 4a3e c91d 883e
00000360: fdfc 903e 72fd 883e b247 593e 0c93 883e
00000370: bc59 8f3e 1ab5 0b3e 1faf 353f ac34 333e
00000380: 67d2 6d3e 47e8 6a3d a991 703e 450c 183e
00000390: ef54 2a3e e639 693e eb81 2c3e fad2 603e
000003a0: a082 683e 2d6d 593e 9ca6 4a3e e301 573e
000003b0: dc8b 6c3e 75b7 313d d8b7 2c3f 6fec 073e
000003c0: 30a5 493e aa7d 073d 0d04 2d3e 8ca4 a13d
000003d0: 2f01 dc3d b403 473e 608a e13d f5b7 333e
000003e0: 2d7f 603e 33ef 353e 90c8 1c3e 2ca3 1f3e
000003f0: 2993 233e 6d45 1e3c 5f9e 2d3f 1ba0 ff3c
0.27752542 0.2181979 0.27666494 0.21432617 0.20502171 0.30600488 0.2352918 0.23058341
0.23434557 0.20181893 0.20696631 0.26473224 0.24413392 0.20195876 0.6373253 0.19578034
0.29758492 0.1527916 0.27072677 0.20575586 0.21457875 0.2714301 0.24492066 0.2516555
0.27426192 0.26106295 0.22179279 0.287884 0.26436698 0.14028703 0.6542865 0.20067611
0.22801396 0.06035425 0.23312868 0.15559255 0.18774423 0.2349712 0.19724019 0.26265153
0.24631877 0.24820031 0.2163512 0.25485408 0.25211558 0.07520255 0.69753754 0.1651127
0.19819234 0.0136772245 0.1502498 0.101991445 0.11249258 0.1893802 0.16803099 0.19157152
0.20335516 0.17796001 0.1569869 0.18259107 0.18910637 -0.0040846597 0.68187237 0.08954431
0.23642439 0.1642906 0.28502154 0.18186952 0.19173509 0.24261908 0.2288265 0.23367581
0.24476479 0.21585852 0.18089895 0.27124116 0.23440163 0.18311296 0.60576725 0.1818414
0.26774302 0.13405877 0.2495477 0.186246 0.18696411 0.2969132 0.23554944 0.22330698
0.267368 0.25913697 0.23503087 0.28591323 0.26160246 0.13054132 0.6209065 0.22171009
0.2148373 0.06531383 0.25515732 0.16085197 0.16958329 0.22680745 0.14343916 0.23161167
0.22804719 0.2137338 0.18128458 0.21212232 0.25646555 0.05801497 0.6524569 0.12357499
0.22737533 -0.0072694332 0.24172665 0.099028185 0.1067795 0.22308894 0.11855952 0.22253463
0.20656201 0.19996877 0.1434274 0.20915674 0.25598434 0.010986897 0.6563645 0.086876296
0.31116232 0.18697496 0.25986683 0.20142713 0.19565825 0.30003855 0.24985234 0.2331108
0.25919312 0.23936152 0.23233649 0.2980192 0.26440498 0.1924765 0.64372665 0.19085142
0.2581395 0.1280157 0.2552572 0.18070695 0.20470083 0.2561508 0.20294885 0.25168118
0.26491338 0.23869778 0.22568662 0.29408404 0.2645648 0.13769875 0.65407693 0.17633389
0.21857992 0.03899944 0.23531961 0.1558686 0.19162713 0.21485029 0.16752031 0.24262883
0.22418275 0.2288972 0.2186634 0.22278874 0.21812813 0.079127125 0.6732961 0.14117676
0.21069744 -0.0017378132 0.20918405 0.09300532 0.09777979 0.2030771 0.12454923 0.19925644
0.1853529 0.21757403 0.15611976 0.19789888 0.21055487 0.015585874 0.68948436 0.06571067
0.27259707 0.19815032 0.28195992 0.17069939 0.21846966 0.27634153 0.223113 0.23558618
0.24123663 0.21630785 0.19282286 0.2512159 0.24723235 0.19657116 0.6376845 0.17338729
0.2729788 0.12520286 0.284903 0.18652213 0.19528829 0.26633266 0.19801661 0.26585224
0.28318015 0.26755863 0.21218756 0.26674688 0.2799815 0.13643304 0.7097034 0.17500561
0.23224793 0.057350423 0.23493065 0.1484843 0.16633962 0.22775993 0.16846435 0.21955481
0.2270608 0.21233054 0.19790119 0.20996813 0.23100227 0.04338785 0.67468023 0.13273786
0.1969192 0.033078827 0.16896077 0.07892713 0.10742413 0.19435006 0.11012721 0.17550643
0.21923514 0.17767029 0.15310884 0.15589589 0.15974106 0.009660107 0.6781978 0.031204274

std.constant7 f4 [16]
00000000: 0000 0000 0000 0000 0000 0000 0000 0000
00000010: 0000 0000 0000 0000 0000 0000 0000 0000
00000020: 0000 0000 0000 0000 0000 0000 0000 0000
00000030: 0000 0000 0000 0000 0000 0000 0000 0000
0.0 0.0 0.0 0.0 0.0 0.0 0.0 0.0
0.0 0.0 0.0 0.0 0.0 0.0 0.0 0.0

std.constant8 f4 [16, 1, 8, 1]
00000000: 85b8 593e 0981 b63e 8dd7 f4bd f0c0 893c
00000010: 88b2 82bd cfdf 4abd 6639 1ebe e104 adbe
00000020: 29d3 0abd 3829 773e 943f ad3d 7717 b43d
00000030: bdc7 6b3d ed5e 523d 7ec2 c63d 94cf 6d3d
00000040: 2af6 af3e 46f4 9dbd c756 5f3e 5980 2e3d
00000050: e013 08be 7e5a 40be b808 0abe 940d 6dbe
00000060: 632e 933e 95d6 8d3d 56fb 3ebd 0ca9 37bd
00000070: da11 91bb 3a96 28bc 3dab 9d3b 744e 073d
00000080: be28 ad3e 84cb ab3b 137d 1d3d 526f 72bd
00000090: 20b2 85bc c405 ae3c e727 933b 6d26 80bd
000000a0: 1d94 0a3e 3668 b03e 0a67 eebb 409f cc3d
000000b0: 7a6d 80bd bdd0 5bbe c174 79be ede2 5bbe
000000c0: de17 123e 96cd 8c3e aba8 003d 841a 9cbd
000000d0: e009 03bd ec1c da3c 754e fdbb 7e1e 92bc
000000e0: eadf d53e a35d d5bd b0bb ccbd c9ba 60bd
000000f0: f3da 95bc 453f d1bc afaf d1bd 3caf 67be
00000100: b20f d43e 1007 a43d abf1 9bbd 256c 11be
00000110: 41a9 29be 3d4e 9bbc 8069 dcbd 281b 40be
00000120: 2ab8 cb3e 2c35 a03c e63f 41be d50e 20be
00000130: a966 c1bd 9db0 75bd 9daa a0bc 3586 bebd
00000140: b1a6 b63e c73e 8f3d b088 c4bd b9ab f5bd
00000150: b3d9 93bc 79c2 b1bd e69c 19bc 54a9 51bd
00000160: 1d85 353e 514d a93e 7df4 a93d 2e07 43be
00000170: a85c 83bd e5d0 0cbe c048 2abe b347 36be
00000180: 08fb c53e f700 b23d e6e9 2fbd a6d1 a3bd
00000190: e1ed ffbd c3a0 30be 7f70 09be d0e2 c5bd
000001a0: 7cf1 0e3d eef1 553e 865b 0e3e 2ce7 77bc
000001b0: 31ba 733d a66e 833d ed80 af3d 287c 963d
000001c0: 8c7c 37bf 5bdb 34bf 566e 87be 118d e6bc
000001d0: f4e5 a23d 4b64 f33c 231e 213d 58af 483d
000001e0: 6526 8a3e da3b df3d 802a 1cbd 8c67 5ebd
000001f0: 92c9 10bc da8b 113c 8619 9e3c fe9c ec3c
0.21261795 0.3564532 -0.119551755 0.016815633 -0.063817084 -0.049529847 -0.15451583 -0.33792785
-0.033892784 0.24136817 0.08459392 0.08793538 0.057563532 0.05136006 0.09705065 0.05805929
0.34367496 -0.07712607 0.21810447 0.04260287 -0.13288832 -0.1878452 -0.13479888 -0.23149711
0.28746328 0.06925694 -0.04662641 -0.04483895 -0.004427177 -0.010289723 0.004811673 0.033033803
0.33820146 0.005242767 0.03844936 -0.059188195 -0.016320288 0.021242984 0.0044908407 -0.06257329
0.13533063 0.34454507 -0.007275467 0.09991312 -0.06270881 -0.21466346 -0.24360944 -0.21473284
0.14266917 0.275006 0.031410854 -0.07622245 -0.03199184 0.02662512 -0.0077303 -0.017836805
0.41772395 -0.104182504 -0.09996736 -0.054865632 -0.01829288 -0.025542865 -0.10238587 -0.2262544
0.41418225 0.080091596 -0.07614454 -0.1420141 -0.16568471 -0.018958205 -0.1076231 -0.1876036
0.39788944 0.019556604 -0.18872032 -0.15630658 -0.09443409 -0.059982885 -0.019612605 -0.09302942
0.3567405 0.06994396 -0.095963836 -0.11995644 -0.018048143 -0.08679671 -0.009375786 -0.051186875
0.1772656 0.330668 0.082985856 -0.19045708 -0.06414157 -0.13751562 -0.16629314 -0.17800789
0.38668084 0.0869159 -0.042947672 -0.07998972 -0.12496544 -0.17248826 -0.1342182 -0.09662402
0.034898266 0.2089307 0.13902101 -0.015130799 0.059503738 0.06417589 0.085695125 0.073479
-0.7167442 -0.7064721 -0.26451367 -0.028143438 0.07954016 0.02971091 0.03933538 0.048995346
0.26982418 0.10900088 -0.03812647 -0.05429797 -0.008837121 0.008883441 0.01929928 0.028883453
