embedder/embedder.tflite (tflite, 70492 bytes, 5 tensors)

dense/bias f4 [32]
00000000: 3e03 a93d 5527 1640 607f fb3f a352 ea3f
00000010: 7d30 873d 711c 903e 9542 98be 9a58 16c0
00000020: bad9 6140 5ee9 63c0 5590 62c0 2895 62c0
00000030: 4124 6040 d8be 63c0 33c0 6240 f2a3 2a3e
00000040: 0287 96bd ef10 533f 3906 63c0 128e 773e
00000050: 052d 6040 d7bf 6040 0ce2 61c0 f0e9 13c0
00000060: 15a1 6140 4eb2 0ebe 6717 84bc f1c6 42be
00000070: 3561 6240 1ddb 5fc0 5a82 3cbd 4717 efbe
0.082525715 2.3461506 1.9648247 1.8306469 0.06601045 0.281467 -0.29738298 -2.3491578
3.528914 -3.5611186 -3.5400593 -3.5403538 3.5022128 -3.5585232 3.542981 0.16664103
-0.073499694 0.82447714 -3.5472548 0.2417529 3.5027478 3.511709 -3.5294218 -2.3111534
3.5254567 -0.13935205 -0.01612444 -0.19021203 3.537183 -3.4977486 -0.04602275 -0.46697447

conv1d/bias f4 [16]
00000000: 7cad b4ba ea74 69bd dc98 a83a da97 c5bc
00000010: ab80 b9bc a107 1a3a f15f 10bd 81ea 7a3a
00000020: 45ec 60b9 487c fd3a 6083 c8bb 9aba acb8
00000030: 84c8 c83a dc50 4ebd cfbc 613e ef18 e6bc
-0.0013784613 -0.056996264 0.0012862938 -0.02412026 -0.022644361 0.00058757706 -0.035247747 0.0009571687
-0.00021450322 0.0019339407 -0.0061191767 -8.2363564e-05 0.0015318547 -0.050370082 0.22044681 -0.028088061

std.constant6 f4 [32, 512]
00000000: cf1b b3bb 2618 8dbc 4df3 5fbb b4da 28bc
00000010: 5274 aebc 9eb4 26bc 0876 42bc 21d1 913b
00000020: a5fe d1bb 1153 97bb 90cd 29bc 0622 40bc
00000030: 1d8b 2b3b 72c6 9abc 276e 1b3d 3f09 adbc
00000040: 1a7b 29ba 19bb b1bc 6f7d f2bb fa26 66bc
00000050: 6c9d a5bc c6c8 73bb 57b8 1dbc 928b 1bbc
00000060: ef67 3dbc 349b 56bc a74f 43bc 08ba 9eb9
00000070: 1cc4 57bc 65a9 4ebc f69b 0f3d 4b81 b4bc
00000080: ebc5 683c f056 30bd da64 253c e629 2bbb
00000090: c005 ae39 3788 2c3c cb8a 56bc 0b58 173c
000000a0: 12f7 8f3c 2fe9 f93b 92d0 ed3a 5889 663c
000000b0: 7a21 973c a7b4 23bd cdaa 923c dfe3 00bc
000000c0: ebf9 b53c 21ee e4bd edb2 283c 650c 44bd
000000d0: 44e8 16bd dad6 b13c 461a 64bd 774c c33c
000000e0: f920 9c3c e491 2c3c fe40 b73b 1b9e 803c
000000f0: 9354 af3b 97bb bfbd 1b4a 153d 6460 2ebd
00000100: c347 aebb 245c acbc f3dd bb3a a28c 2ebc
00000110: f3e0 48bc edee 08bc f5cb e8bc ad92 a73b
00000120: 5f9f 1bbc 3eb0 2f3c e0ed 0ebc 63a7 01bc
00000130: 05e8 1a3c eadf d8bc 491e dc3c 93d7 a7bc
00000140: dab1 0cbc 938b 9abc 9c09 8fbc 140c 9dbc
00000150: 5426 bcbc 19be 75bb 26f5 23bc 289a 96bc
00000160: ce59 74bc 1bd9 aabc 6a4d 88bc 9581 643b
00000170: 4d84 17bc e202 acbc 65f3 993d 29c9 c6bc
00000180: 82a7 1c3c 66a3 3abd 117b 083c ec53 2bbc
00000190: 3979 94bb df38 f73b 8c07 87bc d689 313b
000001a0: 8a1b ac3b 2b32 873b 7dc2 8cb7 d556 5fba
000001b0: 513d 2a3c b88e 1cbd cd34 703d a3c6 3cbc
000001c0: a591 963b 678b d5bd 9b6b 0c3c 1e3f 14bd
000001d0: e8fe 13bd 50ec cc3a c5ed 54bd 4d51 593c
000001e0: 9c70 473c f783 ba3c 3160 1e3c 4a4c 583c
000001f0: 2573 133c 684c b8bd 7740 813d e627 ccbc
00000200: 689c 53bb 68c0 debc 7de0 05b9 c112 19bc
00000210: 3c7e 74bc 7bdc cc39 fba3 acbc 18ca 653c
00000220: 391f 11ba 6663 6c3c 87a0 253a 020d d73a
00000230: af37 913b 1415 efbc 0440 2a3d d4ad 8ebb
00000240: 850f 85bb ec8c 0fbd ec5d 51bc 4a2f dfbc
00000250: 9445 c5bc 0e5d 3dbc 994e 80bc 983b 17bc
00000260: 82a4 f6bb 85b5 3cbc 5497 32bc b7b8 20bc
00000270: 12d3 79bc 31d5 0cbd f1e6 f93d 0922 d0bc
00000280: 6c26 9c3a e7d2 90bd dac9 e4ba d5fb c9bc
00000290: 38f6 c8bc 09dc 5d3c ba2f aabc 78eb e739
000002a0: a5a1 88bb cf34 82ba ef87 743b 80e6 a0bb
000002b0: bfc4 b03a 211f 19bd 5403 973d 3372 a4bc
000002c0: dcf1 483c 73b8 26be 01a2 733c 47b2 03bd
000002d0: 68fe 37bd 0401 7f3b e047 a1bd d9c3 bb3c
000002e0: e429 a43b 08b7 763c f6b6 3b3c 2fac 87bb
000002f0: bf46 a93b 86d1 fcbd c828 893d ea45 51bd
00000300: 7ea2 a1b9 ac97 d8bc 09c1 1cbb 8647 80bc
00000310: 0f36 acbb dfe6 1bbc f7ab b2bc 809b 4bbb
00000320: 7449 9abb 507f 5f3b e52e 9aba d99c 8ebb
00000330: 7d39 17bb 155e b3bc ed2a 373d ce24 3bbc
00000340: 46dc e2bb 42c3 96bc b102 a8ba 6305 42bc
00000350: 67a7 86bc 1406 48bc ce7e 44bc 3e22 ce3a
00000360: 8391 2eba 7f12 22bc 0b41 4fbc d995 123b
00000370: 39d3 7a3b a252 a3bc 9a83 1e3d f40b 65bc
00000380: 8ab9 c93c fc53 6fbd e5ac 913c b42b 35bc
00000390: 4151 b0bb 9e0d af3c d1a3 98bc 8266 b83b
000003a0: 607f 5a3c b5ea 943c 867f 373c 9393 353d
000003b0: f974 18bb dde5 2ebd 0a4e 183d 37b8 64bc
000003c0: 1149 893c 8609 18be 9aa6 0e3c 5cff b4bc
000003d0: f4da 30bc 629a c7bc 4f07 a7bd c841 163d
000003e0: 9857 823c b956 4a3d 0424 973c 17cd a2bb
000003f0: 125e 283d f1df fabd ef70 113d b8c8 39bd
-0.0054659615 -0.017223429 -0.0034172118 -0.010306049 -0.0212957 -0.010174898 -0.011868961 0.004449979
-0.00640853 -0.0046180566 -0.010363951 -0.011726862 0.0026175447 -0.018893454 0.037946846 -0.021122573
-0.0006465182 -0.02169566 -0.0074002068 -0.014047379 -0.020216666 -0.0037198528 -0.00962647 -0.009493725
-0.011560424 -0.013098527 -0.011920846 -0.00030274712 -0.013169315 -0.012613629 0.035060845 -0.022034308
0.014207344 -0.04305166 0.010094846 -0.0026117503 0.0003319215 0.010530523 -0.013094614 0.0092373
0.017573867 0.0076266746 0.0018143824 0.014070831 0.01844858 -0.039967205 0.01790371 -0.007866829
0.022213897 -0.11178232 0.0102965655 -0.047863383 -0.0368426 0.021708895 -0.05568912 0.023840172
0.019058691 0.01053283 0.0055924645 0.01570039 0.005350658 -0.09361952 0.036447626 -0.042572394
-0.0053186133 -0.02104003 0.0014333114 -0.010653647 -0.012260663 -0.008357746 -0.028417567 0.0051139207
-0.009498446 0.010723172 -0.008723706 -0.007913443 0.009454732 -0.026473958 0.02686991 -0.020488536
-0.008587325 -0.018865382 -0.017460637 -0.019170798 -0.022967495 -0.003749734 -0.010007178 -0.018384054
-0.014913989 -0.020855477 -0.016638476 0.0034867276 -0.009247852 -0.020997468 0.07517127 -0.024265843
0.009561421 -0.045565985 0.008330123 -0.01045702 -0.0045310524 0.0075446214 -0.01648309 0.0027090213
0.0052523063 0.0041258535 -1.6779866e-05 -0.0008519714 0.0103905955 -0.038222045 0.058644105 -0.011521968
0.004594999 -0.104269795 0.008570577 -0.036193006 -0.03613177 0.0015634391 -0.051984567 0.0132640125
0.012172844 0.022768004 0.0096664885 0.0132017825 0.008999621 -0.08998948 0.06311124 -0.024921369
-0.003228927 -0.027191356 -0.00012767497 -0.00934285 -0.014922675 0.00039074183 -0.021074286 0.014025234
-0.00055359636 0.014427995 0.0006318171 0.0016407075 0.004431687 -0.029184856 0.041564956 -0.004354218
-0.004060688 -0.035046503 -0.01277874 -0.027244229 -0.024081029 -0.0115578305 -0.015662478 -0.009230517
-0.007526935 -0.011517887 -0.010900337 -0.009809664 -0.015248077 -0.034383003 0.12202252 -0.025406854
0.0011913306 -0.070714764 -0.0017455176 -0.024656216 -0.024531469 0.01354123 -0.02077471 0.0004423519
-0.00416966 -0.0009933951 0.0037312468 -0.0049102902 0.0013486369 -0.037383202 0.07373682 -0.020073986
0.012264695 -0.162813 0.014870168 -0.03215244 -0.044920355 0.0038910517 -0.07875037 0.022920536
0.0050098766 0.0150582865 0.0114571955 -0.004140399 0.0051659043 -0.12344651 0.066972315 -0.051092066
-0.0003082938 -0.02643951 -0.002391877 -0.015659105 -0.0052554677 -0.009515493 -0.021810515 -0.0031068027
-0.0047084633 0.0034102984 -0.0011763243 -0.004352194 -0.0023075037 -0.021895448 0.04471867 -0.011422349
-0.0069232313 -0.018403653 -0.0012818185 -0.011842105 -0.016437246 -0.01220848 -0.011993123 0.0015726758
-0.0006659256 -0.009892105 -0.012649785 0.0022367148 0.0038272871 -0.019936863 0.038699724 -0.013979901
0.024624605 -0.058429703 0.017782638 -0.011057783 -0.00538078 0.021368798 -0.018632801 0.0056274543
0.013336033 0.018178323 0.011199838 0.04433019 -0.002326308 -0.042699683 0.0371838 -0.013959936
0.016758474 -0.14847383 0.008706713 -0.022094421 -0.01079439 -0.024365608 -0.08155691 0.036683828
0.015910909 0.04939911 0.01844979 -0.0049682963 0.041105337 -0.12249745 0.035508092 -0.045357436

std.constant7 f4 [16]
00000000: 0000 0000 0000 0000 0000 0000 0000 0000
00000010: 0000 0000 0000 0000 0000 0000 0000 0000
00000020: 0000 0000 0000 0000 0000 0000 0000 0000
00000030: 0000 0000 0000 0000 0000 0000 0000 0000
0.0 0.0 0.0 0.0 0.0 0.0 0.0 0.0
0.0 0.0 0.0 0.0 0.0 0.0 0.0 0.0

std.constant8 f4 [16, 1, 8, 1]
00000000: cffa 273e c568 ae3e df4d 46bd a2e2 673c
00000010: c067 cebd 3c39 cebd 6acd 2dbe 56b9 85be
00000020: 5226 0a3d 9d81 433e c315 643d 5dfb 753d
00000030: 314d 483d fdfc 1d3d d0f7 953d 8563 963d
00000040: d86f b93e 758e b13d c396 5fbb 2030 94bd
00000050: 607a 02be e734 03be 96de 0abe df34 2dbe
00000060: c3b6 953e 3017 03bb 407a 3ebd aeb9 fdbc
00000070: 1c58 0bbd 4f71 803b a679 8d3c 7834 243d
00000080: b661 9e3e 5ea3 36bd 2cd0 12bd 9da0 b0bc
00000090: e07b afbc 3b79 353c bf53 733a f32e 443b
000000a0: 7131 e53d c539 ae3e 0a3a 7bbc 8b7e d33d
000000b0: 2064 7bbd a6fc 43be 35d2 75be a8d4 77be
000000c0: a1f8 0c3e 6312 673e d31e 603d 7e49 98bd
000000d0: 7efe babb a4db ad3c 7b36 6d3b 41e4 99bc
000000e0: 3168 c83e c9fe 2abe 7527 20bd 955b 45bc
000000f0: aa27 8e3b 3d03 abbb 3277 d6bd f2eb 95be
00000100: 844a c53e 534f 953d 8475 40bd f4a0 16be
00000110: dc01 18be 5f7a 84bd a672 f6bd 13f8 ddbd
00000120: 0712 c63e 3141 98bd d023 1abe 1468 fcbd
00000130: aad4 81bd 2af8 bf3b f72a 44bd b6df 11be
00000140: 837e b13e 173d 263c a66b e1bd cf0a 95bd
00000150: 99c7 50bd f696 31bd 510f 90bc 75f2 8ebd
00000160: d93f 273e 25d6 a33e d24d 8f3d 778e 28be
00000170: d65f d2bd 1df8 0cbe e79d 1dbe b50f 1bbe
00000180: 290d ce3e cade 82bd f6d3 bdbd a317 21bd
00000190: e10f b5bc faf9 14be 30bc ddbd 10c0 ffbd
000001a0: cae9 c33d ba1f 3b3e 361c ba3d a4e9 c4bc
000001b0: 352c 1f3d c5f9 2a3d 1cdf 513d d2c1 543d
000001c0: c187 2fbf 09ec 37bf a42e 39be ace7 573d
000001d0: a5d8 b53d 1d70 0f3d d984 fa3c 7847 803d
000001e0: d78a 883e 5982 333d e83a 3abd 9825 7ebd
000001f0: 0e65 70bc 8337 47bc d1de 923c 02e3 3d3d
0.1640427 0.34064308 -0.048414107 0.014153155 -0.100783825 -0.1006951 -0.1697289 -0.26117963
0.03372795 0.19092412 0.055684816 0.06005417 0.04890174 0.038571347 0.07322657 0.073432006
0.36218143 0.0866975 -0.003411696 -0.072357416 -0.12741995 -0.1281315 -0.13561472 -0.169147
0.29241 -0.0020002834 -0.046503305 -0.030972328 -0.034019575 0.0039197574 0.01726992 0.0400891
0.30933923 -0.044589393 -0.03584306 -0.021560961 -0.021421373 0.011076267 0.00092821935 0.002993521
0.11191071 0.3402845 -0.015333662 0.103268705 -0.061374784 -0.19139346 -0.24005969 -0.24202216
0.1376672 0.22565608 0.054716896 -0.074358925 -0.0057066074 0.021222897 0.0036195803 -0.018785598
0.39141992 -0.16698755 -0.03910013 -0.012045761 0.0043382244 -0.005218892 -0.104719535 -0.29281574
0.38533413 0.072905205 -0.04698707 -0.14709836 -0.1484446 -0.06468653 -0.12033586 -0.10838332
0.3868563 -0.07434309 -0.15052724 -0.12324539 -0.063393906 0.005858441 -0.047892537 -0.14245495
0.34666833 0.010146401 -0.110068604 -0.07277452 -0.0509716 -0.04335686 -0.017585428 -0.06979839
0.1633295 0.31999317 0.06997265 -0.16460596 -0.102721855 -0.13766523 -0.15392266 -0.1514271
0.40244415 -0.0639015 -0.09268944 -0.039329182 -0.022102298 -0.14548483 -0.108269095 -0.12487805
0.09566076 0.18273821 0.09087412 -0.02403719 0.03886052 0.041742105 0.051238164 0.051942654
-0.6856652 -0.71844536 -0.18084198 0.052711174 0.08879212 0.03501903 0.030580925 0.062636316
0.26668426 0.04382548 -0.045466334 -0.06204757 -0.014672531 -0.012159231 0.017928513 0.04635907
