assets/embedder.tflite (tflite, 76992 bytes, 5 tensors)

dense/bias f4 [32]
0.4505319 -3.025082 2.345102 0.51799226 -0.07379227 -3.9876215 2.7454486 -0.010593272
2.5222208 0.39682075 2.7508235 0.03318823 -1.0920078 0.5039103 -2.258827 0.56665057
-3.9784553 0.17974806 3.9752984 0.5197208 -3.972503 0.46853215 2.466697 1.7115825
0.06761125 -0.37130612 0.40571222 0.9928686 -3.993284 -1.0961896 3.9966621 -0.36961615
00000000: 1eac e63e f29a 41c0 2716 1640 249b 043f
00000010: 6720 97bd 3135 7fc0 6eb5 2f40 678f 2dbc
00000020: 116c 2140 172c cb3e 7e0d 3040 62f0 073d
00000030: e9c6 8bbf 4400 013f 9f90 10c0 0310 113f
00000040: 039f 7ec0 e00f 383e 4a6b 7e40 6c0c 053f
00000050: 7d3d 7ec0 72e3 ef3e 5dde 1d40 2315 db3f
00000060: c477 8a3d d61b bebe 83b9 cf3e a32c 7e3f
00000070: f791 7fc0 f14f 8cbf 50c9 7f40 543e bdbe

conv2d_1/bias f4 [16]
0.04404811 -0.0007496877 0.009782879 0.002528481 0.005363425 -0.0016765499 0.0068926816 0.03214994
0.0045314897 -0.008854906 0.0098181 0.033740085 0.0035879698 0.047429066 0.0012776977 0.046427857
00000000: ca6b 343d b186 44ba 5e48 203c dfb4 253b
00000010: abbf af3b aebf dbba 01dc e13b a8af 033d
00000020: e47c 943b 2b14 11bc 19dc 203c 0b33 0a3d
00000030: 2524 6b3b fb44 423d 6c78 a73a 232b 3e3d

std.constant1 f4 [32, 576]
0.28747782 -0.02965772 0.2642272 -0.023641521 0.38502905 -0.018157627 0.312669 0.22477446
-0.024484567 -0.014377431 0.19754192 0.23085862 -0.027268168 -0.021393463 -0.025957307 0.24141385
0.28304464 -0.02541456 0.49459842 -0.034880128 0.6850229 -0.03138752 0.49363926 0.30215436
-0.017185671 -0.024297062 0.3689126 0.33143485 -0.023709998 -0.016100336 -0.026766557 0.25757873
0.2885668 -0.01751726 0.6069845 -0.013672318 0.8726981 -0.013876092 0.6932465 0.36070174
-0.016332157 -0.018123554 0.4358458 0.2628541 -0.019464076 -0.0019966792 -0.013368829 0.29040545
0.12622947 -0.017249685 0.0858082 -0.020609867 0.14377347 -0.01251341 0.14264941 0.028952697
-0.016620573 -0.019959435 -0.02267506 0.07366185 0.0007705025 0.013806276 -0.016854063 0.052122585
-0.0042348234 -0.024131004 -0.021372873 -0.008322614 -0.0225466 -0.024541292 0.010644182 0.008588876
-0.00046210273 -0.024870114 0.0045961365 0.01060099 -0.017592117 0.015174031 -0.017842717 0.047037728
0.06045113 -0.05352747 0.012306765 -0.053549442 0.037999026 -0.030803343 0.058536 0.031650845
-0.0231466 -0.043447975 0.016500598 0.045279574 -0.02596377 0.019284599 -0.023268508 0.07235273
-0.04834307 -0.011141041 0.30259633 -0.014614663 0.459284 -0.008699916 0.40525678 0.024779033
-0.02107926 0.012753752 0.41018203 0.0046322704 -0.022918506 -0.029743284 -0.01168094 -0.01565236
-0.071191534 0.04548879 0.31005412 0.03212728 0.4415877 0.038934637 0.32945353 0.031846303
0.050679483 0.025704773 0.44344252 0.02271978 0.048282653 0.06208978 0.053021133 -0.06522802
-0.0055342806 0.04106902 0.4069724 0.04857592 0.64041793 0.060939956 0.5336224 0.10443817
0.060051393 0.06715034 0.28747365 0.040522225 0.04222249 0.04591668 0.039869383 -0.0020877947
-0.013168921 0.07033834 0.061075967 0.09037395 0.21988714 0.075250715 0.20143934 -0.026416184
0.11094259 0.07517766 0.03659385 0.003801478 0.086485386 0.034182157 0.05817025 -0.044639904
0.04288659 0.03089855 -0.034438044 -0.04699249 0.10121561 0.012386908 0.033382248 0.008310536
0.020652343 0.01058764 0.065421715 0.030336047 -0.01227341 0.0132736 -0.026773246 0.0106591815
0.11665553 -0.02381228 -0.0009550276 0.027490336 0.04992503 0.0042114737 -0.006062808 0.09770882
0.0050268 0.020430066 0.11295196 0.15786746 0.0023894513 0.05140985 -0.0068398877 0.05122586
-0.05081331 0.38300374 0.43223497 0.27545008 0.45629025 0.38447294 0.50743073 0.04436351
0.24282259 0.40596503 0.4841266 0.02355452 0.28010696 0.01970311 0.33869255 -0.0522783
0.074378386 0.6624304 0.32940418 0.67909086 0.5851989 0.6199029 0.41104782 0.099654585
0.8082299 0.5721523 0.32102346 0.026446043 0.72488856 0.17474762 0.7036897 0.089592084
0.03933036 0.4798179 0.122158214 0.42746016 0.28039545 0.41760704 0.20489277 0.12400187
0.7126277 0.44140097 0.27588603 0.09400409 0.60062957 0.02695087 0.43158808 0.039652076
0.13331798 0.08317387 0.12527408 0.114732735 0.26534024 0.16520585 0.12501927 0.10861743
0.24587987 0.17356983 0.1875863 0.111072585 0.10830388 -0.023414034 0.1496664 0.013837566
00000000: 4b30 933e bff4 f2bc ca48 873e ddab c1bc
00000010: 8722 c53e 4ebf 94bc 2716 a03e 472b 663e
00000020: dc93 c8bc 518f 6bbc 6e48 4a3e 3466 6c3e
00000030: 7e61 dfbc 5841 afbc 6ba4 d4bc 3135 773e
00000040: 3aeb 903e 3232 d0bc 013c fd3e 77de 0ebd
00000050: a95d 2f3f 3390 00bd 49be fc3e fab3 9a3e
00000060: f7c8 8cbc a20a c7bc 1de2 bc3e d4b1 a93e
00000070: 783b c2bc dae4 83bc 8a45 dbbc 5ce1 833e
00000080: 07bf 933e 5b80 8fbc 5663 1b3f dc01 60bc
00000090: 2569 5f3f 8c58 63bc 9a78 313f e6ad b83e
000000a0: 04cb 85bc d977 94bc 2e27 df3e d094 863e
000000b0: 2073 9fbc b8da 02bb ef08 5bbc 06b0 943e
000000c0: 4c42 013e 364f 8dbc 36bc af3d 06d6 a8bc
000000d0: 5a39 133e 0c05 4dbc b012 123e 352e ed3c
000000e0: de27 88bc f881 a3bc 0cc1 b9bc 06dc 963d
000000f0: 8cfb 493a b833 623c 8811 8abc 7e7e 553d
00000100: 46c4 8abb 62ae c5bc 2a16 afbc 935b 08bc
00000110: a6b3 b8bc d20a c9bc ef64 2e3c 5bb8 0c3c
00000120: 6146 f2b9 69bc cbbc 309b 963b c6af 2d3c
00000130: 581d 90bc 809c 783c e42a 92bc a2aa 403d
00000140: 9b9b 773d 9f3f 5bbd 50a2 493c a956 5bbd
00000150: dea4 1b3d 4b57 fcbc 72c3 6f3d 51a4 013d
00000160: f09d bdbc 81f6 31bd 432c 873c 1377 393d
00000170: f9b1 d4bc bcfa 9d3c 999d bebc ab2d 943d
00000180: 6203 46bd ea88 36bc e8ed 9a3e 5772 6fbc
00000190: 4627 eb3e 188a 0ebc d17d cf3e 66fd ca3c
000001a0: 6aae acbc 1df5 503c 6103 d23e 4dca 973b
000001b0: 97bf bbbc 30a8 f3bc 6a61 3fbc 6139 80bc
000001c0: decc 91bd 7452 3a3d 6abf 9e3e e597 033d
000001d0: c817 e23e ed79 1f3d 22ae a83e 4571 023d
000001e0: 4a95 4f3d d192 d23c e60a e33e d51e ba3c
000001f0: 08c4 453d da51 7e3d b02c 593d 4596 85bd
00000200: e958 b5bb fd37 283d b05e d03e 8bf7 463d
00000210: 6ef2 233f 2d9c 793d 7a9b 083f aee3 d53d
00000220: 73f8 753d 1e86 893d bf2f 933e a2fa 253d
00000230: 7df1 2c3d 2113 3c3d 144e 233d 62d3 08bb
00000240: 75c2 57bc 8c0d 903d cb2a 7a3d fa15 b93d
00000250: 182a 613e 0c1d 9a3d 1d46 4e3e c166 d8bc
00000260: de35 e33d bff6 993d 6fe3 153d 3822 793b
00000270: 401f b13d 9702 0c3d ee43 6e3d 55d8 36bd
00000280: d9a9 2f3d f51e fd3c e80e 0dbd 327b 40bd
00000290: 214a cf3d 75f2 4a3c d3bb 083d ea28 083c
000002a0: 1a2f a93c c877 2d3c d2fb 853d 4d83 f83c
000002b0: 6a16 49bc 8379 593c 9153 dbbc d9a3 2e3c
000002c0: 18e9 ee3d f811 c3bc d15a 7aba 6a33 e13c
000002d0: 307e 4c3d 6700 8a3b 85aa c6bb 901b c83d
000002e0: dbb7 a43b f45c a73c 5b53 e73d 02a8 213e
000002f0: 5798 1c3b 2393 523d 2321 e0bb 35d2 513d
00000300: 9e21 50bd 1119 c43e e74d dd3e cb07 8d3e
00000310: e09e e93e a3d9 c43e fbe6 013f 83b6 353d
00000320: 7ca6 783e a6da cf3e 71df f73e 69f5 c03c
00000330: 2e6a 8f3e 6b68 a13c 1c69 ad3e c521 56bd
00000340: b253 983d 0a95 293f aaa7 a83e e6d8 2d3f
00000350: 98cf 153f f5b1 1e3f dc74 d23e b417 cc3d
00000360: 28e8 4e3f 9378 123f 305d a43e 5fa5 d83c
00000370: 4c92 393f 0af1 323e 0225 343f 0e7c b73d
00000380: df18 213d b1aa f53e 162e fa3d 0fdc da3e
00000390: fe8f 8f3e 97d0 d53e 69cf 513e b1f4 fd3d
000003a0: c56e 363f 4fff e13e ef40 8d3e 3785 c03d
000003b0: dcc2 193f 12c8 dc3c 1df9 dc3e 376a 223d
000003c0: 8284 083e 1057 aa3d d947 003e fff8 ea3d
000003d0: adda 873e b92b 293e 0d05 003e d172 de3d
000003e0: efc7 7b3e 4abc 313e 9f16 403e 067a e33d
000003f0: 6dce dd3d cace bfbc 2642 193e f5b6 623c

std.constant2 f4 [1, 5, 5, 1]
0.893014 -0.13990773 -0.5554435 0.14884676 0.14559542 0.3276252 -0.46434674 -0.08460854
0.33686444 0.04300758 0.63646203 -0.37716544 -0.18664743 0.03338181 -0.0126244165 0.37257692
0.31923616 -0.32721034 -0.279127 0.120057166 0.49338925 0.2935777 -0.20581982 -0.4998033
0.66632044
00000000: 919c 643f f943 0fbe 8c31 0ebf 496b 183e
00000010: f716 153e 7dbe a73e dbbe edbe 3e47 adbd
00000020: 7f79 ac3e b728 303d 2def 223f d41b c1be
00000030: 8120 3fbe 5dbb 083d a4d6 4ebc 67c2 be3e
00000040: ec72 a33e 1d88 a7be bce9 8ebe 88e0 f53d
00000050: 849d fc3e d14f 963e 6ec2 52be 38e6 ffbe
00000060: fa93 2a3f

std.constant3 f4 [16, 3, 3, 1]
-0.30702958 -0.24486202 -0.16580608 -0.07074547 0.084650494 -0.03572621 0.3225903 0.07199369
0.19200465 0.30902228 -0.16853115 -0.21191494 0.24527386 -0.06383846 -0.090510935 0.16223498
-0.14967766 -0.15889645 -0.49105906 -0.3388796 -0.31131884 -0.12671256 -0.10029238 -0.048291408
0.44327924 0.27660316 0.25973597 0.35701916 -0.19811545 -0.26150808 0.08907519 -0.052506357
-0.0931007 0.29162708 -0.18566187 -0.20771714 -0.855647 -0.5039313 -0.53733337 -0.1622807
-0.18731688 -0.14709319 0.4597723 0.47108528 0.3786013 0.30866423 -0.13472308 -0.21837671
0.1869366 -0.08620915 -0.08226235 0.23953694 -0.16361447 -0.16609368 -0.61104494 -0.38288847
-0.38874733 -0.12718795 -0.13023141 -0.1637894 0.43712854 0.3411104 0.36477438 -0.2591969
-0.12971386 -0.16834477 -0.07589056 -0.123195566 0.03858743 0.3062432 0.20415911 0.13260768
0.3347683 -0.2485509 -0.42474496 0.2614369 -0.09015784 -0.119516134 0.20817088 -0.2005065
-0.28212962 0.29222867 -0.07751715 -0.11000366 0.26157877 -0.041966833 -0.04803605 0.04868706
-0.070863314 -0.09447552 -0.31962425 -0.2785255 -0.24530841 -0.23633862 -0.12048951 -0.104212075
0.42284068 0.2941967 0.2637281 -0.25058678 -0.24009009 -0.16124226 -0.1924125 0.027778123
-0.12357016 0.3692446 0.15763964 0.24282819 0.31887853 -0.21475366 -0.33803248 0.23998773
-0.096701436 -0.07884658 0.18886182 -0.16108881 -0.25103253 0.2815986 -0.24053638 -0.49537966
0.14182758 -0.06259295 -0.05506133 0.26685366 -0.22214726 -0.34023952 0.30204204 -0.17778292
-0.24798983 0.19810621 -0.058478486 -0.11973579 0.24564843 -0.19299185 -0.19562587 -0.33037475
-0.16389044 -0.21954612 0.051975444 -0.1988048 0.022469532 0.20318267 0.2922958 0.16279425
00000000: fb32 9dbe 1cbd 7abe 12c9 29be 00e3 90bd
00000010: 3d5d ad3d a555 12bd 8e2a a53e 6e71 933d
00000020: de9c 443e 2b38 9e3e 6e93 2cbe 3b00 59be
00000030: 1229 7b3e bdbd 82bd cc5d b9bd ed20 263e
00000040: 1a45 19be c0b5 22be 186c fbbe a081 adbe
00000050: 2f65 9fbe f0c0 01be 1766 cdbd 36cd 45bd
00000060: 7ff5 e23e ee9e 8d3e 1dfc 843e 37cb b63e
00000070: c7de 4abe 63e4 85be 0e6d b63d e810 57bd
00000080: 94ab bebd 2550 953e 251e 3ebe cdb3 54be
00000090: af0b 5bbf a401 01bf ae8e 09bf e92c 26be
000000a0: ffcf 3fbe 999f 16be 4667 eb3e 1732 f13e
000000b0: 08d8 c13e 3d09 9e3e d9f4 09be 259e 5fbe
000000c0: 4f6c 3f3e 6c8e b0bd 2a79 a8bd 2c49 753e
000000d0: 8d8a 27be 7614 2abe 716d 1cbf f509 c4be
000000e0: e409 c7be 8f3d 02be 625b 05be 69b8 27be
000000f0: 50cf df3e 06a6 ae3e b5c3 ba3e 75b5 84be
00000100: b6d3 04be 9262 2cbe 836c 9bbd f54d fcbd
00000110: da0d 1e3d e9cb 9c3e 160f 513e 4fca 073e
00000120: c066 ab3e 2184 7ebe 2c78 d9be 0fdb 853e
00000130: aca4 b8bd e0c4 f4bd bf2a 553e 9351 4dbe
00000140: 4b73 90be ff9e 953e 50c1 9ebd 9949 e1bd
00000150: a7ed 853e 6ae5 2bbd 73c1 44bd 156c 473d
00000160: c920 91bd 627c c1bd caa5 a3be e59a 8ebe
00000170: 2132 7bbe c002 72be 34c3 f6bd 246d d5bd
00000180: 937e d83e f3a0 963e 5f07 873e e94c 80be
00000190: 2dda 75be b11c 25be c807 45be f28e e33c
000001a0: 5a12 fdbd a10d bd3e 496c 213e f4a7 783e
000001b0: 0c44 a33e 62e8 5bbe 9812 adbe 58bf 753e
000001c0: 670b c6bd 517a a1bd fe64 413e 77f4 24be
000001d0: 5687 80be b12d 903e 2b4f 76be 67a2 fdbe
000001e0: 403b 113e bc30 80bd fd87 61bd 0ba1 883e
000001f0: 927a 63be e033 aebe 41a5 9a3e ba0c 36be
00000200: 0cf1 7dbe 5bdc 4a3e 2387 6fbd 0a38 f5bd
00000210: 438b 7b3e a89f 45be 2652 48be e126 a9be
00000220: e5d2 27be b3d0 60be 34e4 543d 7c93 4bbe
00000230: 0612 b83c 1e0f 503e cca7 953e 89b3 263e
